model.onnx (onnx, 56237 bytes, 7 tensors)

layer1.bias f4 [80]
00000000: be90 b33d 180e 303e 8fdb b13b 367c 833e
00000010: 2644 243d 4c87 67be 048f 373e b55a 9abe
00000020: 7aa0 9c3e 0672 263e 88dd 273e 190a 91be
00000030: 9cf5 aabe ea91 90bd e762 5d3e 497f 9e3e
00000040: 817b 353e 8be0 13be 7b10 793e 181a 0c3d
00000050: 9430 983e c44b 653e 8d7c 70be 0cb6 1dbe
00000060: 19c2 953e 667e 9f3d d42a f4bd d14d 0dbd
00000070: 3abd 8cbe 9ff3 d53c e772 1d3e 8be4 35be
00000080: cf37 f1bc fbe3 1abd 6400 aabd ef61 403e
00000090: ea1e 903e f2da 26be 22fd 3ebe c394 8abe
000000a0: 8211 73be 0018 b6be cab4 703e a277 42bc
000000b0: a721 303e f6b8 92be d104 97be 3707 dbbd
000000c0: 16dc 583e 83fc b4be 646d 183e 6bbc 8fbe
000000d0: f05a 57be 019c 3a3e 87bf 8cbe b3d9 dcbd
000000e0: 157e 88be dd10 943e f002 46be b39c 963d
000000f0: 5f17 87be 3069 2cbe 4466 973e e149 873e
00000100: 4a48 7bbd bca0 ae3e 8d64 a53e 59d4 33be
00000110: 2b77 35be daab 9ebe 5af0 093e 54fb 4d3e
00000120: 427f df3d 5b31 94be 4fce 763d 858a dd3d
00000130: 82e3 573d 9a75 843e c001 a93e 489e fabd
0.08767842 0.17192876 0.0054277848 0.25680703 0.040104054 -0.22610205 0.1792565 -0.3014733
0.30591184 0.16254434 0.16393101 -0.28328016 -0.3339051 -0.07059081 0.2161976 0.30956486
0.17722894 -0.14441125 0.24322693 0.034204572 0.29724562 0.22392184 -0.23485012 -0.15401477
0.29249647 0.077877805 -0.11922231 -0.03449804 -0.27488118 0.026117144 0.15375863 -0.17762963
-0.029445557 -0.037815075 -0.08300856 0.18787359 0.28148586 -0.16294459 -0.1865125 -0.2706662
-0.23737147 -0.35565186 0.23506466 -0.011869343 0.17200337 -0.2865674 -0.29495862 -0.106947355
0.21177706 -0.353489 0.14885479 -0.2807344 -0.21030784 0.18223573 -0.27489874 -0.1078371
-0.26658693 0.28919116 -0.19337058 0.07354107 -0.26385018 -0.16837001 0.2957021 0.26423553
-0.061348237 0.34107006 0.32303277 -0.17561473 -0.1772124 -0.30990487 0.13470593 0.20115405
0.109129444 -0.28943905 0.060255345 0.10817436 0.052707203 0.25870973 0.33009148 -0.12237221

layer2.bias f4 [80]
00000000: b532 4abd 890c bf3c e4f4 3b3d 25e7 283c
00000010: b4fd 8ebc 83ff a83d d47c 883c f770 17bc
00000020: ec54 ac3c e324 d2bd 94f4 52bd 9b74 75bd
00000030: f0ab d3bb d523 a0bc a459 8bbd b2f5 d0bb
00000040: a103 0dbd a0bd b4bd 29af 87bb eafe 9bbd
00000050: 989e a83c 7f34 773d 8e8d d0bd 1515 c1bd
00000060: 390c b5bd a17e 66bd ea45 3b3d a608 913d
00000070: 98e0 513d 2533 c23d df1c cc3d 98b7 c1bb
00000080: dff5 e8bc 7d48 35bd 54b2 b3bd a464 843d
00000090: a3e1 06bd 8579 853c 630f 98bd f070 cabd
000000a0: 7ee9 e8bd 14ed 923c e106 2abd 9a33 ac3d
000000b0: c419 c43d 8204 e73d 6a27 c33c 8804 dcbd
000000c0: 26cb d8bd 6137 e03c 836b a93d dc20 fa3d
000000d0: f3bf b6bd 6059 b0bd 5fa6 8dbd ff22 7e3d
000000e0: e8d2 b3bd 58e1 fe3c 3c16 853d 67e1 a53d
000000f0: 5fbf 9bbd 70be 97bd c0d1 8d3d 71b5 7f3d
00000100: 0397 a8bd 5247 643d e48e aabd ab90 ce3d
00000110: 0f76 943c 2739 5cbd b435 f73d c3e9 8abd
00000120: b97d 3abd 6b48 ca3d 70b6 1a3d 8b08 cfbc
00000130: ad38 8ebd e7ab 743d 5974 e33d 6e2c d2bd
-0.049364764 0.023321407 0.045887843 0.010309015 -0.01745496 0.0825186 0.016661085 -0.0092432415
0.021036588 -0.10260942 -0.05150278 -0.059925657 -0.0064597055 -0.019548336 -0.06804207 -0.0063769454
-0.03442729 -0.088252306 -0.0041407538 -0.076169804 0.020583436 0.0603528 -0.101832494 -0.09427849
-0.08840222 -0.056273106 0.045720972 0.07081728 0.05123958 0.09482411 0.09966444 -0.0059117787
-0.028437553 -0.044258583 -0.08774248 0.06464508 -0.032930028 0.016293297 -0.0742481 -0.09884822
-0.1137266 0.017935313 -0.041510466 0.0840828 0.09575227 0.11280157 0.023822505 -0.10743052
-0.105856225 0.027370157 0.08272459 0.12213299 -0.0892333 -0.08610797 -0.069164984 0.062045094
-0.087804615 0.031113312 0.064983815 0.08099633 -0.076048605 -0.0740937 0.06924772 0.062428895
-0.08231928 0.05573208 -0.083280355 0.10086187 0.018122701 -0.053765442 0.1207079 -0.06782868
-0.045530055 0.09877094 0.037771642 -0.025272628 -0.06944404 0.05973425 0.11106176 -0.102623805

layer3.bias f4 [80]
00000000: 59bd 34bd f9d7 933c 18ae 003c 66c8 88bd
00000010: 7262 83bd 79b5 cabd 133d 38bd afd5 13bd
00000020: 5a7b 5e3d 3af2 8b3b 4381 ffbc abd5 ba3d
00000030: 7be5 e8bd 2075 f93d 33b4 363d b202 e9bc
00000040: 0698 873d b26a 683d 82be b2bd 7845 113d
00000050: 90b7 0f3d b0f8 babc b8f8 a4bd 2760 593d
00000060: 2477 cf3c c73f 813c cbb8 763d f115 97bd
00000070: 5c90 b83d fc42 3f3d c6a0 9c3d 60aa 3d3d
00000080: 9a87 50bd dd7c c93d 4dcc 013c 191d 0abc
00000090: c435 54bd 804a e4bd 930f 9cbc d633 8abd
000000a0: b1ed 503c 5631 95bd 911f f3ba a0d2 a43d
000000b0: c8ae 81bc faa6 bb3d 3f1b 64bd bf79 883d
000000c0: 6443 91bd 4ac9 3d3d 03f1 ccbd 73a3 783d
000000d0: 7dbe ea3d 7e98 9bbc efca 9a3d 249c 563d
000000e0: e438 c03c 3d7c d93d eac6 303d 587c 44bd
000000f0: 096a 7e3c 5b66 00bd 084f 3fbd d5b1 33bd
00000100: b206 a83d b57e c83d ab64 8b3d d48a 813d
00000110: eef9 c3bd 3ae6 cebd 693e 5dbc ddb9 b5bd
00000120: f9c7 12bd 61cb 233d 87a8 a43d b84d 1fbd
00000130: 992e e03c 8457 0e3b 848d a0bd a833 d23c
-0.04412589 0.01804732 0.007854007 -0.06678848 -0.06415261 -0.098978944 -0.04498012 -0.036092456
0.054316856 0.004270819 -0.031189566 0.09122785 -0.11371895 0.12180543 0.044605445 -0.028443668
0.06620793 0.056742378 -0.08727743 0.03546664 0.03508717 -0.022823662 -0.08055252 0.053070214
0.025325365 0.015777482 0.060234826 -0.07377232 0.09011909 0.04669474 0.076478526 0.04630506
-0.05091057 0.09838269 0.007922244 -0.008429789 -0.051809087 -0.11147022 -0.019050395 -0.06748168
0.012751983 -0.07284801 -0.0018548836 0.08047986 -0.015830413 0.091627076 -0.055690046 0.06663846
-0.07092932 0.046334542 -0.10006907 0.060702752 0.11462114 -0.018993612 0.07558238 0.052395
0.023464628 0.106194 0.04315845 -0.047970146 0.01552821 -0.031347614 -0.04670623 -0.043870766
0.08204402 0.097897924 0.0680631 0.063253075 -0.09569155 -0.10102506 -0.013503649 -0.08873341
-0.03583524 0.03998888 0.080399565 -0.038892478 0.02736597 0.0021719644 -0.07839492 0.025659397

onnx::MatMul_25 f4 [8, 80]
00000000: 7528 6fbe 06d7 a2bd 9dfa 9a3e ceec d53c
00000010: ffb7 013e 40d6 b2be f4c1 2f3d 3b62 9ebe
00000020: 47ae b13e 938b e73d e911 84be fe71 08bd
00000030: e4e1 c3bd ef93 823e 2f1e 4cbe 290b 9f3e
00000040: 3255 21bc c0bd d0bd 644d b03e a5c0 9e3d
00000050: 0f47 9a3e b415 a7bd 4691 713e a8b5 d03b
00000060: c94c 813e 645c 9bbe e445 a23e b57e 1ebc
00000070: 3a73 563e 0c2d 6a3d 1280 0cbe 8c4a ffbd
00000080: 555f 6abe f932 62be d603 b93e 2ee0 883e
00000090: db0c f0bc c026 95be 8d72 43be de8d 4abe
000000a0: 9724 503d 4671 ac3e 03d7 3abe c7ea a43b
000000b0: 59d2 9e3e b007 163e 728d bcbd 3074 2d3e
000000c0: daff 9cbe 0ab9 a63e 5dc6 56be 5841 5c3e
000000d0: 9c0e a1be 6976 7bbe 0759 28be 925f da3d
000000e0: 9ea0 aabe 3a8e f9bb cef8 a6be 184a 8cbe
000000f0: 005d 2d3e a3f7 75be 0ec8 693c f8b4 693e
00000100: defd 2a3e b010 433e f787 aebd a8d5 f33d
00000110: ef49 40be 327d b33e b126 a4be c022 93be
00000120: 95b2 67bd 5583 d7bc 0b93 1cbe 64b2 76be
00000130: 89d1 903e c424 32be f11f 8c3e e667 28be
00000140: 468f 773e 21cb a53e bf0e cf3d b231 08be
00000150: b65d 7bbd f1b0 81bd 3825 6c3c 159e 043e
00000160: 2c79 1e3d c055 063e 184c d2bd 498b 04be
00000170: b52b 87be 2056 c6bc e0cf 83be 177d a33e
00000180: 5a17 183e 6d05 30be 55cc 81bd df05 9e3e
00000190: b576 a8be c4fb 16be 3b3d 60be 88b7 983e
000001a0: 4119 4cbe 2a70 f1bd b432 1ebe cf6a 69bd
000001b0: 4794 3f3e 023a 72be d23c 86be 27c1 113e
000001c0: 02dc 89be 867f f93d 2e57 933e d593 643e
000001d0: 2f04 7abd 6b7b 6c3d bbe5 ad3c 1a01 1fbe
000001e0: 3ed7 5bbe 089d 92be cc2a 6dbd 86c6 0a3e
000001f0: 72db 6cbe acbf e13d d679 923e 9fb5 f93d
00000200: 389b 44be 94cf 533e 8bb7 0a3e 0b55 443e
00000210: d10d aabe f794 99be b1be 95bd eb69 1dbd
00000220: 101d 05be a227 84be 7110 aabe a18d 003e
00000230: b448 1e3e 4edf bfbd 0551 abbe 11e2 92be
00000240: c2b9 3dbe f9be 703e 412c 69bc dc8e ac3e
00000250: e409 813e 7800 913e d6ae 9abe 6450 0f3e
00000260: 17c9 97be 21d0 913e ef0c 203e f03d 91be
00000270: ae79 b43e 85ff 293c ea7a 9fbc b2b8 41be
00000280: 607c b13e 218f 15be 3a0f 843e 1442 9f3e
00000290: a546 afbe 1d78 6b3d 39dd 373e 5c44 023e
000002a0: f30d e03d b8a3 ab3e 35aa a43e 0d9a 323e
000002b0: 877d 013e ccee 1fbe 7f4b 85be c531 a63e
000002c0: b8e5 403e 1c7e abbc 10fa 0abe 58fc 43be
000002d0: a5ef a23e 9b48 973e 0e05 5fbe a699 4c3e
000002e0: 40d1 813d 438b 13be 4efd 9fbe 2918 07be
000002f0: 493f 39bd 2062 2e3d 3d3c b6bc 1730 f2bd
00000300: 13b7 1abe 2400 99be 5d4f 9bbe 0519 083c
00000310: 4ffe a3be bb24 a63e 160e 0ebe a1a7 a1be
00000320: 6ac5 abbe 5b90 88be 7214 b23e 1504 2fbe
00000330: 8e77 283e 3221 09bd 2ea3 28be 1bae 5a3e
00000340: 2ad6 debc c17e 2bbd 1032 e2bd ab3f 9a3c
00000350: f819 d8bc 1739 81bd 8b60 9d3e 4e08 0fbe
00000360: f137 25be 695b 6abe 190c 86be 96c9 ac3e
00000370: 9861 97bd 2c38 cf3d 3a42 f83b ddf0 883e
00000380: 5821 283e 33de 9bbe 223c 17be 9a88 903e
00000390: b536 9f3d 59a7 0bbd 3142 833d 1070 553e
000003a0: 78d2 c03d 2370 93bb 9f8b 8e3e 089c d5bd
000003b0: 6e38 30bc f4a6 3ebe 5449 233e 658f 623e
000003c0: 7586 9c3e 14cb 873e 16c0 5d3d ac36 94be
000003d0: 1a4a 61be acd1 aa3d 1df5 fabd ae98 873e
000003e0: 429b 0e3c a798 65be 4c31 ed3c 7516 0e3e
000003f0: da5b a8be 3ab9 9fbd 038e a93d 49c2 98be
-0.23355277 -0.07951169 0.30269328 0.026113894 0.12667845 -0.34929085 0.042909577 -0.3093432
0.34703276 0.113059185 -0.25794914 -0.033311836 -0.095645696 0.2550349 -0.19933389 0.31063202
-0.009846972 -0.10192442 0.34434044 0.07751588 0.30132338 -0.081584364 0.23590574 0.0063693114
0.25253895 -0.30343926 0.31693947 -0.009673764 0.20942393 0.057171866 -0.1372073 -0.124653906
-0.22887929 -0.22089757 0.3613574 0.26733536 -0.029303005 -0.29131126 -0.19086666 -0.1978068
0.050816145 0.3368017 -0.18246083 0.0050328705 0.31019858 0.1465137 -0.09206666 0.16938853
-0.3066395 0.3256305 -0.20974107 0.21509302 -0.3145646 -0.24556889 -0.16440211 0.1066276
-0.33325666 -0.0076158317 -0.32611698 -0.2740028 0.16930008 -0.24020247 0.014268888 0.2282294
0.16698405 0.19049335 -0.08522027 0.11905986 -0.18778203 0.35056454 -0.3206077 -0.2873745
-0.056566793 -0.026307741 -0.15290467 -0.24091488 0.28284863 -0.17396837 0.2736812 -0.16445884
0.24175748 0.32381538 0.101102345 -0.13300207 -0.061368667 -0.06332577 0.0144131705 0.12950929
0.038689777 0.13118649 -0.1026842 -0.12943758 -0.26400533 -0.02421099 -0.25744534 0.31931373
0.14852658 -0.1718957 -0.06337801 0.30863854 -0.32903066 -0.14744478 -0.21898358 0.29827523
-0.19931509 -0.11788972 -0.15449029 -0.056986626 0.18708907 -0.2365494 -0.26218277 0.14233838
-0.26925665 0.12182526 0.2877745 0.22322018 -0.061039146 0.057734888 0.021227708 -0.15527764
-0.21468827 -0.2863543 -0.057902142 0.13552293 -0.23130587 0.11022887 0.28608578 0.121928446
-0.19199836 0.20684654 0.13546579 0.19173066 -0.33213666 -0.29996464 -0.07311762 -0.03843109
-0.12999368 -0.25811487 -0.3321567 0.12554027 0.15457422 -0.09368764 -0.3346025 -0.286881
-0.18527892 0.2351035 -0.014231742 0.33702743 0.25202858 0.2832067 -0.30211514 0.1399551
-0.29645607 0.28479102 0.15629934 -0.28367567 0.35249084 0.010375862 -0.01946779 -0.18918112
0.34665203 -0.1460538 0.25792867 0.311051 -0.34233585 0.057487596 0.17955483 0.1272139
0.109401606 0.33523345 0.32161108 0.17441578 0.12645541 -0.15618438 -0.2603416 0.32459846
0.18837631 -0.020934157 -0.13571954 -0.1913923 0.3182346 0.2954758 -0.21779272 0.19980487
0.063387394 -0.14408593 -0.31247944 -0.1319281 -0.04522637 0.042574048 -0.02224552 -0.11825579
-0.151089 -0.2988292 -0.30333987 0.008306746 -0.3202996 0.32449898 -0.13872561 -0.31573203
-0.33549052 -0.26672634 0.34781224 -0.17091401 0.16451856 -0.033478923 -0.16468498 0.21355478
-0.02720173 -0.04186893 -0.11044705 0.018829187 -0.02637957 -0.06309717 0.3073772 -0.13968012
-0.16134621 -0.22886433 -0.26181105 0.33747548 -0.073916614 0.10118136 0.007576254 0.26746264
0.1641897 -0.30442962 -0.14769033 0.2822922 0.077741064 -0.034095142 0.064091094 0.2084353
0.09415144 -0.0044994517 0.27840897 -0.10430151 -0.010755641 -0.18618375 0.15945941 0.22125013
0.30571333 0.26522124 0.054138266 -0.2894796 -0.22000924 0.08340773 -0.12253783 0.26483673
0.008704009 -0.22421513 0.02895417 0.13875754 -0.32882577 -0.07799001 0.0827904 -0.29835728

onnx::MatMul_26 f4 [80, 80]
00000000: 7d4e dc3d 28a3 9bbb 68a1 8fbc b439 d1bd
00000010: 73b8 86bd a93a 57bd aebd 5dbb b27c cc3d
00000020: 67ad 973d 3184 853d 11cb d63d 1691 1f3d
00000030: bac2 34bd 45c9 91bd 0396 af3d 9304 ccbb
00000040: ec1e 4c3d 74ea b43c 7521 193d 36b7 2b3d
00000050: 1863 503d 912b 023d 3db1 1f3d 6b5e 9abd
00000060: 6f64 233d 27cb 02bd 0456 09bd fbbc 1a3d
00000070: 1039 7ebd 403a e6bd b760 113d 7f9f 41bd
00000080: 911d b33d 79c5 88bd cdae 8f3d 781f 67bd
00000090: 91fe 8e3d 86d0 983d 6786 22bd 0c65 b63b
000000a0: e180 bdbd d0b0 5e3d 25c5 c9bc 2c06 1cbc
000000b0: 6f61 debc 12d1 e83b 3157 3b3d 21b1 853d
000000c0: d5a2 2a3b dcc4 c0bd 0c37 693d 8100 b4bd
000000d0: 6608 6c3d 6de8 98bc 41a9 b63d 0133 2dbd
000000e0: 28c7 023d 9803 7e3d ae23 bbbc e975 39bd
000000f0: f1c3 1bbd c70d e23d acc3 b9bd 7d8b 443d
00000100: 67c9 a73c d976 82bb 3b81 f9bc 9e6f 5d3d
00000110: b780 c43d c32a 86bd 9cfb b4bd 3be5 07bd
00000120: 3813 373d c262 3e3b f2f1 ad3d 6fee 89bd
00000130: f6d4 99bd 9a25 e53d 6c2b 9e3d 2797 8a3c
00000140: 3a7e b5bc 1336 853d 22ac 9bba 263f 8d3c
00000150: 69ab 32bc b919 c83c e0d2 123d 5da5 a03d
00000160: f8b6 dbbc a3ab d0bc 150d ea3c ebc5 c93d
00000170: 50f1 34bc 4899 933d 351e bbbd f725 acbd
00000180: 8646 6f3b e0ec 8d3d 0799 5bbb 7cc1 fb3b
00000190: ca0b 513d 7f30 ac3c a6a7 993a 338a 4cbd
000001a0: a741 87bd d6ee bebd 5a81 d0bd 4fa4 a53d
000001b0: e085 023d f2d4 883d c96c 33bd be0d cb3c
000001c0: ac42 afbd a0d5 bcbd 3d83 0bbc 4acc 65bd
000001d0: c407 77bc 93a2 e53c 12c1 e5bd 4a59 70bd
000001e0: 8acc 703d fe0f a9ba 935d 45bd 1319 b4bc
000001f0: db27 b1bd 4394 2c3d 3139 613c 011c 29bd
00000200: 3253 7bbc 9f86 5cbd 249d abbd 13a9 363d
00000210: c11d 753d e593 823d ef48 8bbd ff4e b4bc
00000220: b3da 89bd ff98 b43d e6b6 e83d 2463 cd3d
00000230: 22dc 8abc aa9d 893c cafd d33d 40a8 b83d
00000240: 64ac 97bd b1af 5f3c eb53 023c 256e ac3c
00000250: c794 be3c 74e0 c33d 1a3e cdbc a034 51bd
00000260: 072a feba 908e 823c 9955 a9bc 2f5d 43bd
00000270: 277f 89bd 0f3c 473c 6821 403c 8812 c6bc
00000280: 9925 00bd 3472 cdbd fb1b e8bc a7be e83d
00000290: a843 663d 91ab cd3d 34f1 8e3d befe babc
000002a0: 023d a33b 5075 83bd 0b15 323d edb6 22bc
000002b0: 2ad8 af3a 5f63 083b 3dcb bebd 8ed5 243d
000002c0: 0d14 913c 9c7d 7fbc 07e4 b73d cfcc 8c3d
000002d0: e65f 8a3d 2d3e d0bc cdca 843c c9e5 8bbd
000002e0: 73f2 e33d fc1a 28bd 914d 8a3d c11c 8ebd
000002f0: 3f24 483d b68c b13c 6b03 95bb 50f3 993c
00000300: da6e 443d 14f0 e23d f36e d1bd 09a3 7bbb
00000310: c90b d2bd 8697 1c3d e61b c2bd 4031 0ebd
00000320: 0df8 db3c 5707 1f3d 1d5f dabd eeea 92bd
00000330: 6e71 2f3c ea94 95bd 196a 773d f0b4 9f3d
00000340: dd6b 66bd 91dd 4cbd 686a 663d a0cd e13d
00000350: 3672 0e3d e9ee 6dbd 3782 ff3c f505 e13c
00000360: 59d4 a6bc c03b b93d e44e 4ebb e58e 8cbd
00000370: 2ef1 553d b934 b63a 08c0 47bd e7ea 97bd
00000380: 5b4b 58bd fb95 893d 7451 a5bb 53fb cfbd
00000390: b938 43bd e7ca a8bd 92f6 d8b9 95dc 5c3c
000003a0: 0348 8ebd bcdd b4bd 9c67 cabd bab9 c7bd
000003b0: ebb5 74bd 0ae7 2c3d 7f9a 59bd 6a2d 42bd
000003c0: f180 b73c d7f4 e93d f1db 0abc 6376 a63d
000003d0: 6b6e 21bd f50e 7fbc 6296 88bc a5ef c4bc
000003e0: a46c 0c3d 2a0d 113d 3888 a9bc f609 ecbc
000003f0: ea4d 98bd 14d5 84bd 94b2 b9bc 3eeb 8abd
0.10757158 -0.0047496744 -0.01753302 -0.10216084 -0.0657815 -0.052546177 -0.0033834982 0.09984721
0.07406121 0.06519354 0.104879506 0.038956724 -0.04413102 -0.07118467 0.08573534 -0.006226131
0.049834177 0.022084452 0.037385423 0.04192277 0.050875753 0.03177983 0.038987387 -0.0753754
0.039890703 -0.031932022 -0.033529297 0.037777882 -0.062066138 -0.11241579 0.035492625 -0.047271248
0.08745874 -0.0667829 0.070157625 -0.056426495 0.069821484 0.07461648 -0.039678957 0.005566245
-0.09253097 0.05436784 -0.024630139 -0.009522956 -0.02714607 0.0071050012 0.04573745 0.06527925
0.0026036997 -0.09412548 0.056937262 -0.087891586 0.057625197 -0.018665517 0.08919001 -0.04228497
0.03192821 0.062015146 -0.022844162 -0.045278464 -0.03802866 0.11037784 -0.090705246 0.04798459
0.020481778 -0.003981453 -0.03045713 0.054061525 0.09594863 -0.06551125 -0.08837053 -0.033177596
0.044696063 0.0029050563 0.08493413 -0.06734931 -0.07511322 0.111888126 0.07723126 0.016917778
-0.022154916 0.065044545 -0.0011876861 0.017242026 -0.010905125 0.024426328 0.035845637 0.078440405
-0.026820645 -0.025472468 0.028570691 0.09852203 -0.0110438615 0.072069705 -0.09136621 -0.08405679
0.003651054 0.06929946 -0.003350796 0.0076829772 0.051036634 0.021019218 0.0011722937 -0.049936485
-0.06604319 -0.09322898 -0.10180922 0.0808798 0.031865954 0.06681241 -0.043804917 0.024786826
-0.085576385 -0.09220433 -0.008515176 -0.05610303 -0.015077535 0.028031623 -0.11218466 -0.058678903
0.058788814 -0.0012898443 -0.048184942 -0.021984613 -0.0865018 0.04213358 0.013746546 -0.041286472
-0.0153396595 -0.053839322 -0.083795816 0.044594835 0.05984283 0.06375865 -0.0680102 -0.022010325
-0.06731167 0.08818244 0.1136301 0.10028675 -0.01695067 0.016798813 0.10351141 0.09016466
-0.07405928 0.013652728 0.007954578 0.021048615 0.023264302 0.095642954 -0.025054026 -0.051075578
-0.0019391187 0.01593712 -0.020670699 -0.04769629 -0.067137055 0.012160315 0.011726715 -0.024178758
-0.031285856 -0.10031548 -0.028333655 0.11364489 0.056216866 0.10042489 0.069795996 -0.022826549
0.004981638 -0.0641886 0.0434771 -0.009931308 0.0013415862 0.0020811183 -0.093161084 0.040242724
0.017709756 -0.015593912 0.0897904 0.06875002 0.067565724 -0.025420273 0.016209984 -0.068309374
0.11130228 -0.04104136 0.06753076 -0.06939078 0.048862692 0.021673542 -0.0045475266 0.018792778
0.04795728 0.110809475 -0.1022624 -0.0038396737 -0.10256154 0.03823044 -0.094779775 -0.034714937
0.026851678 0.03882536 -0.10662673 -0.071737155 0.010708196 -0.07303794 0.060403917 0.07798183
-0.05625521 -0.05001599 0.05625382 0.11025548 0.03477689 -0.05808917 0.031190021 0.02746866
-0.020364927 0.090445995 -0.0031480128 -0.068631925 0.05223196 0.0013901211 -0.04876712 -0.07417851
-0.05280624 0.0671806 -0.0050451104 -0.10155358 -0.047661517 -0.082418256 -0.0004138244 0.013480325
-0.06947329 -0.08831355 -0.09883043 -0.097522214 -0.059743803 0.042212524 -0.053125855 -0.04740659
0.022400351 0.114236526 -0.00847529 0.08128049 -0.039411943 -0.015567531 -0.01667327 -0.024040053
0.034283295 0.035412945 -0.020694837 -0.028813343 -0.07436736 -0.06485954 -0.02266816 -0.0678315

onnx::MatMul_27 f4 [80, 80]
00000000: 1379 c6bd 04ac 033d 372e d33b 7b35 833d
00000010: d068 f73b cd62 123b bc0f a13d df1f 0d3d
00000020: f40e 8bbd 22a5 1bbd 554f aa3d 268b 8d3d
00000030: 401a ac3c e187 913c 094c f1bd 0f78 7a3d
00000040: 1883 42bd a1c8 aa3d cc97 da3d fadd a33d
00000050: af54 943c 3c5b 3f3c 6ab7 c7bd 3761 a5bb
00000060: 59cd b0bd 9112 863c 444b 6f3d 228a d03c
00000070: cfc9 a93d 99da 67bd b49a 263d 0265 a4bd
00000080: 7db4 923c f4dc 6fbd 50c3 c2bb 40f2 b7bc
00000090: c418 9c3c 47ab b83d 4705 af3d 33b6 5e3d
000000a0: 2c8f b33d 7cc1 e1bd 5460 f8bd 9802 c23d
000000b0: db09 7cbd bd05 6f3c b35a cc3d d979 a0bd
000000c0: fc82 943d c069 e8bd 9b20 f0bb a638 6dbd
000000d0: ac84 cfbc 5cf1 813d b255 033d e692 b4bb
000000e0: d4db 26bd 7dd7 b2bd 76be a03d 449f 96bd
000000f0: 2901 05bd 99d5 dd3c 79d8 e1bd ac3c da3d
00000100: b09a b7bc 0460 e53a a714 673d 3b93 9cbd
00000110: 6ee6 e0bd 13a1 bd3d d2b8 74bd 6b44 91bc
00000120: 164c fe3c 40ec 663d 40d0 cbbc 20c9 d23d
00000130: 3394 3b3d 54c4 b13c 270b b7bd f2bf 90bc
00000140: 8085 0bbd 749c aabc f94f 913d 1892 8d3d
00000150: 8705 b83d 71b3 a53d e68b aabd e9d4 61bd
00000160: 3d1b 90bd f6fb 703d c6db 533d 802a 933d
00000170: c7a9 923d 25fc 943d 1d5d 6c3d 764d 583d
00000180: 2a0c dfba c23b cd3c 21e2 523d 6cf7 c6bd
00000190: 989b aabc f6c8 a7bc e864 ce3d 6f21 e93d
000001a0: 3f99 e3bd bba7 93bc bf00 d63d bd24 14bd
000001b0: fe06 7f3d fcd5 bdbd 4cdb d4bd 6108 453d
000001c0: d960 ecbc a7ed ebbd ef90 c03c c8e6 4abd
000001d0: 2322 87bd d8d4 d6bd 773f 7ebb 2cd7 8d3b
000001e0: 14b0 cf3d d5c7 943d c464 1e3d 0b6b b8bd
000001f0: cef8 0a3d 5970 613c 059a 37bd 0272 7bbd
00000200: 0acf 103d b173 0fbd 5de2 60bc c909 c1bd
00000210: 932a af3d 03ad 013d 2744 3fbd 6789 93bd
00000220: 387b 183d 6beb 7dbc 5455 1c3d 3ca7 19bd
00000230: 4edf f73b 2d87 003d a59a e3bd 11bf b93d
00000240: 726d b53d 934a 553d 1238 a4bd 346f 973c
00000250: dfa9 9d3d b696 cdbd 8a3f 363c 9254 7c3d
00000260: 4b71 eebc dba1 eb3c bd98 2cbd a70f 943d
00000270: 9b44 c3bd 2db1 ea3d 0d45 bfbd 27f8 823d
00000280: 44f2 7cbd e9fe 9b3d 1c51 843d c2c6 1e3c
00000290: 8e03 843c 95ef 66bd f8af a83d bf66 11bd
000002a0: ec4d 9f3d 9ed1 5a3d 4684 cdbc 249e 193d
000002b0: 1269 bb3d 7efd fabc 72d0 813d bedd b7bc
000002c0: 28a2 86bd 05a3 b6bc 270b 9cbd 8392 c5bd
000002d0: d82d 13bd fc75 dfbd 73c9 5e3d 6600 3abd
000002e0: 297b 9abd 5c56 2ebd ee7e 70bd c9dd 833d
000002f0: 38d3 8abd 47ea cc3c 1628 053d 592f b83d
00000300: 3dd5 82bd 3074 04bd 16c0 53bd 63bd acbd
00000310: db07 49bc bbd7 05bd a880 60bd bb92 b1bd
00000320: f0e9 5cbd 084a 3a3d 1d39 cdbd 8725 6a3d
00000330: ef5a c2bd 37f6 a8bd dea8 f33c fe27 b8bd
00000340: 69e8 89bd b8a4 893d 5216 7abd 9978 81bd
00000350: 036d 83bd 5944 f33c 72e3 ce3d 1d5b d83c
00000360: afcc 9dbc c0d7 82bc c946 adba 87d0 753d
00000370: 4b55 aabd 3064 043a 2a8a b63a ddf2 b53d
00000380: 6c4c 1d3d 5747 26bd b2a1 8bbd 319b 83bd
00000390: e83d d8bd 52e8 41bb 1d1f 9bbd 1b2c d9bd
000003a0: 9187 c7bc b4c4 b9bd aefc 84bd f690 ecbc
000003b0: 7577 ccbd e28f 4cbd e728 a2bd 35ff 9cbd
000003c0: d8da b2bb 20c5 1bbd a996 e53d 8325 64bd
000003d0: 98d4 e2bd 8ea5 b23d d84d 42bd 9bea 94bc
000003e0: 8230 8abd 09c3 9e3d 9f7c 703c e195 3d3c
000003f0: 0ab3 c8bd e20b bdbd 7cb7 853c 956c 08bc
-0.09691062 0.03214647 0.006444718 0.06406685 0.0075503364 0.0022336722 0.07864329 0.034454223
-0.067899615 -0.03799928 0.08315913 0.06911306 0.02100861 0.017764987 -0.11782081 0.061149653
-0.047488302 0.08339048 0.10673484 0.08001323 0.018106787 0.011679467 -0.0975178 -0.0050469893
-0.08632917 0.016366275 0.05842139 0.025456492 0.08290445 -0.056604955 0.04067488 -0.08027078
0.01790833 -0.058560327 -0.005943693 -0.022454381 0.019054778 0.090170436 0.085459284 0.054372977
0.08767542 -0.11023232 -0.12127748 0.09473151 -0.061532836 0.01458877 0.09978237 -0.078357406
0.07251546 -0.11348295 -0.0073281056 -0.057915352 -0.025331818 0.06344864 0.032064147 -0.0055106757
-0.04073699 -0.087325074 0.078488275 -0.07354596 -0.03247181 0.02707939 -0.11027617 0.106561035
-0.022412628 0.0017499928 0.05641618 -0.076452695 -0.10981451 0.09259238 -0.05974657 -0.01773282
0.03104214 0.05637765 -0.024879575 0.10292268 0.04579563 0.021700062 -0.08937674 -0.017669652
-0.034062862 -0.020826556 0.07095332 0.06912631 0.08985429 0.08090866 -0.08327465 -0.055134688
-0.07036445 0.05883404 0.051723264 0.071858406 0.07161289 0.07274655 0.057705987 0.052808248
-0.0017017175 0.025052909 0.051485185 -0.09715161 -0.020826146 -0.020481568 0.1007784 0.1138333
-0.11113214 -0.018024316 0.10449361 -0.03616785 0.062262528 -0.0926933 -0.1039339 0.048103694
-0.028854774 -0.11519938 0.02350661 -0.049536496 -0.06598308 -0.104898155 -0.0038795152 0.004328629
0.10141006 0.072646774 0.038670316 -0.09004792 0.033928685 0.013759696 -0.04482462 -0.061388023
0.035353698 -0.03502244 -0.013725844 -0.094256945 0.08553042 0.031659137 -0.046695855 -0.07203942
0.037226886 -0.015498023 0.038167313 -0.037513003 0.007564462 0.031378914 -0.111134805 0.09069646
0.08858766 0.052073073 -0.08018507 0.018485643 0.07698416 -0.100385115 0.011123547 0.06160409
-0.029106757 0.028763702 -0.04213785 0.07229548 -0.0953457 0.11459575 -0.09339342 0.063949876
-0.06175448 0.0761698 0.06460783 0.009690942 0.016114976 -0.056380827 0.082366884 -0.035498377
0.07778534 0.053422563 -0.025087487 0.03750433 0.091509 -0.030638453 0.06338586 -0.022444602
-0.065738976 -0.02229453 -0.07619315 -0.096470855 -0.035932392 -0.109111756 0.054391336 -0.045410536
-0.07543022 -0.042562827 -0.0587148 0.064387865 -0.06778568 0.025014056 0.032508932 0.08993406
-0.06388328 -0.032337368 -0.05169686 -0.0843456 -0.012269939 -0.03267644 -0.054810196 -0.08670565
-0.053934038 0.045480758 -0.10020659 0.057164695 -0.094900005 -0.08250087 0.029743608 -0.08992003
-0.06733782 0.06720871 -0.061056443 -0.0632183 -0.06417277 0.029695677 0.101019755 0.026410634
-0.01926264 -0.015972018 -0.0013219948 0.06001332 -0.083170496 0.00050503295 0.0013926674 0.08884213
0.03840296 -0.04059538 -0.0681795 -0.06426085 -0.10558683 -0.0029587937 -0.07574294 -0.106041156
-0.024356635 -0.09070721 -0.06493507 -0.028877717 -0.09983722 -0.049941905 -0.07917958 -0.076658644
-0.005458217 -0.03802979 0.11210377 -0.055699836 -0.11075705 0.08722983 -0.04743752 -0.018178275
-0.067475334 0.07752044 0.0146781495 0.011571378 -0.09799774 -0.09230782 0.016322844 -0.008326669

onnx::MatMul_28 f4 [80, 1]
00000000: 3ce1 dfbd ef7c 4ebd aeee f83d 3122 d03d
00000010: ad83 afbc 4bae ba3d 09c6 d8bd 602a a33d
00000020: b66e 37bc c19e a0bc 8a8e aa3d 5c57 4b3d
00000030: 6e1c 1cbc 62b2 673d 2bf4 dcbd f642 313d
00000040: c3cf 753d 9bbb d7bd e296 483d 4dee b4bd
00000050: f2d0 2b3d b8fa c8bd 7294 623d b688 da3d
00000060: 94cc 77bd 1b9f f4bc e9b6 b93d 2fe2 633d
00000070: 5878 40bd 6c7d a63d ebed 9ebd 868a 42bc
00000080: 399e 833d 85bb 24bd 3020 ccbc 783a 8ebd
00000090: 8267 1abd ddb8 e43c 77b2 e83d 2d65 70bc
000000a0: 6965 84bd 98bd c63c 83a8 eebc 1e7f a53d
000000b0: 1499 333c c7f6 833d 6726 9b3d 1410 e8bc
000000c0: fad3 1abd 70f8 8cbd 6bdb 8f3d ec94 e63d
000000d0: ac97 1b3d 4fe2 15bd 9238 203b 504f 64bd
000000e0: c12b 243d 47ca 98bd 26bb 103c 35f5 39bc
000000f0: b14f 713b f103 2b3d 6642 66bd d335 123c
00000100: 2f80 44bd f079 c1bd 4383 b7bd a9b0 2d3d
00000110: b6f7 8f3c d710 833c 1371 7e3c a301 5cbd
00000120: ece0 b43c 1793 b83c e252 cb3d fdf8 a63d
00000130: bcb1 d3bd 28b1 943d 2a47 c33d d4b0 d0bd
-0.10931632 -0.050412115 0.121548995 0.101627715 -0.021425093 0.09115275 -0.10584647 0.07967067
-0.011195829 -0.01960695 0.083279684 0.04964386 -0.009528263 0.056566603 -0.10788759 0.04327675
0.06001259 -0.1053383 0.048972018 -0.08834515 0.041947313 -0.09813446 0.05531735 0.10670607
-0.060497835 -0.029861024 0.090680905 0.055635627 -0.04698977 0.08129391 -0.07760223 -0.011873847
0.06426663 -0.040217895 -0.024917692 -0.06944746 -0.03769637 0.027920181 0.113621645 -0.01467256
-0.06464655 0.024260327 -0.029133087 0.08080886 0.01096179 0.064435534 0.07575684 -0.02832798
-0.037799813 -0.06883323 0.070242725 0.11258873 0.037986442 -0.036592778 0.002444778 -0.0557397
0.04008079 -0.07460456 0.008833682 -0.011349966 0.0036821181 0.041751806 -0.056215666 0.0089239655
-0.047973808 -0.09447086 -0.08960583 0.042404804 0.017574172 0.01599924 0.015529889 -0.0537125
0.022079907 0.022531075 0.09927918 0.081529595 -0.103366345 0.072603524 0.09535058 -0.10189977
